model.pth (torch, 25524 bytes, 6 tensors)

fc1.weight f4 [16, 261]
0.19979823 0.30719033 0.16170478 0.19410092 0.14006452 0.25715184 0.46548805 -0.24124408
-0.091108225 0.06875451 0.28990778 -0.29253566 -0.09928756 0.38475212 0.18498546 0.05436928
0.40708077 -0.36710918 0.27503693 0.0018301086 -0.028442293 0.039657246 0.35644037 0.124250956
-0.007245694 0.5000477 0.2416275 0.1288989 0.14515968 0.06858931 0.14137562 0.1649448
0.20179853 -0.12888916 -0.10662388 0.22074392 0.29634845 0.027220672 0.05517802 0.40880316
-0.18834198 0.00037341352 0.0654287 -0.10278033 0.12636821 -0.12677461 0.14522368 -0.09486312
-0.14278008 -0.23966497 0.043912783 0.2353911 -0.14409333 -0.10854891 0.18058176 0.35085002
-0.18550721 -0.062183935 0.24382138 0.33125952 -0.076313406 0.21446553 -0.026083006 -0.09970239
0.010057691 0.12822211 -0.040165838 -0.16232899 -0.14835978 0.2959652 -0.14460471 -0.2107621
-0.10923205 0.11515776 0.22039847 -0.16549172 0.2897468 0.16340612 -0.01623683 0.06456877
0.014679779 -0.15197618 0.12618335 0.27056497 0.1404596 0.11863042 0.023695022 0.02542955
-0.074174546 0.040156946 0.3784941 -0.036307555 -0.08446024 -0.05037613 0.28985938 0.31305483
0.22312592 0.2981637 0.036831602 0.06375061 -0.122828506 0.24444795 0.12810786 0.45125914
0.28789625 0.28812256 0.37395763 0.4499908 0.18452656 0.101609714 0.5928753 -0.09740223
-0.06770243 0.33168596 0.002432298 0.21350674 -0.12195583 -0.32317653 -0.0009763044 0.3962054
-0.11891157 0.24578494 0.19573289 -0.075006925 0.1740097 0.3759038 0.13657494 0.17725797
0.24805737 0.21384452 0.07526888 0.30079103 0.011217223 0.13453594 0.10133315 -0.098170474
0.070126295 0.011109645 0.34909064 0.33259895 0.26019648 0.08429249 -0.51343113 0.00016225032
0.3252863 0.123987675 -0.09602523 0.11321013 0.14740925 0.26696074 0.23104092 0.19844729
0.049523477 -0.13281423 0.40230098 0.11958428 0.40299004 0.36520556 0.18487246 0.22955568
0.15385419 0.067096815 -0.066152655 0.24887073 0.23909897 -0.11365467 -0.11235672 0.22320925
0.2386932 0.37348053 0.088773265 -0.0051403027 -0.03838137 0.35726908 0.46403453 0.91104823
-0.08168614 0.30745026 0.1939611 -0.042661604 0.27649605 0.108918875 -0.07902925 0.02001099
0.4289317 -0.025492076 0.18366507 -0.1018893 0.15850323 0.31460565 -0.00013196042 0.17858401
0.19203293 0.3492657 -0.012770237 0.0027635128 0.014338307 0.22482671 -0.18171188 0.14322636
0.15510555 -0.15493295 0.1236955 0.017690852 0.30752906 0.3231605 0.060339015 0.16944179
0.76853395 -0.07344743 0.30503803 0.16801937 0.0882773 -0.13829829 0.18124062 -0.15453222
-0.08889652 0.36606887 0.10370004 -0.1024287 0.18844733 0.18084256 0.16199066 0.3748358
0.12998845 -0.016918449 -0.1451354 0.35631615 0.3082389 0.25154126 0.16279547 0.22581609
0.28078863 0.44105726 0.54618365 0.33666226 0.5041084 0.03673021 -0.2666757 0.26194417
0.46761575 0.6581705 -0.28005046 0.14854616 0.19345002 -0.07188501 0.050753403 0.2526083
0.06136566 0.094235666 0.013732541 0.12319671 -0.047863133 -0.20569411 0.055664584 0.18356149
00000000: e897 4c3e 0d48 9d3e f095 253e 64c2 463e
00000010: 136d 0f3e 68a9 833e 7354 ee3e b008 77be
00000020: f396 babd 2acf 8c3d cb6e 943e 3cc7 95be
00000030: 4757 cbbd 3bfe c43e d46c 3d3e 52b2 5e3d
00000040: e46c d03e bcf5 bbbe a4d1 8c3e 41e0 ef3a
00000050: d0ff e8bc a36f 223d 5a7f b63e 4977 fe3d
00000060: 496d edbb 2003 003f 336d 773e 13fe 033e
00000070: bda4 143e 8d78 8c3d c5c4 103e 4ae7 283e
00000080: 46a4 4e3e 85fb 03be 9f5d dabd b20a 623e
00000090: fcba 973e e3fd de3c 5902 623d a64e d13e
000000a0: b8dc 40be b7c6 c339 7bff 853d 7e7e d2bd
000000b0: ab66 013e 34d1 01be 84b5 143e 9847 c2bd
000000c0: f134 12be bc6a 75be e4dd 333d 5d0a 713e
000000d0: 348d 13be e44e debd 6dea 383e 9da2 b33e
000000e0: 9af5 3dbe 95b4 7ebd 50ac 793e d99a a93e
000000f0: 344a 9cbd da9c 5b3e 07ac d5bc c430 ccbd
00000100: 03c9 243c a84c 033e ef84 24bd 9239 26be
00000110: a0eb 17be c088 973e 4213 14be 05d2 57be
00000120: 0eb5 dfbd d5d7 eb3d 23b0 613e a976 29be
00000130: b159 943e ef53 273e 1a03 85bc a23c 843d
00000140: 7583 703c a59f 1bbe 3536 013e 7e87 8a3e
00000150: a4d4 0f3e 81f4 f23d 101c c23c a251 d03c
00000160: d3e8 97bd 9c7b 243d fbc9 c13e 3bb7 14bd
00000170: 7ef9 acbd 3357 4ebd 7368 943e b948 a03e
00000180: 1f7b 643e eaa8 983e bcdc 163d ae8f 823d
00000190: 838d fbbd 9050 7a3e b52e 033e 700b e73e
000001a0: 2367 933e cd84 933e 6077 bf3e 3265 e63e
000001b0: 88f4 3c3e c118 d03d adc6 173f d27a c7bd
000001c0: 92a7 8abd bed2 a93e 3067 1f3b 83a1 5a3e
000001d0: fac3 f9bd 6577 a5be aeee 7fba 6fdb ca3e
000001e0: e987 f3bd 0caf 7b3e 346e 483e 3b9d 99bd
000001f0: 992f 323e 7676 c03e 4dda 0b3e 1d83 353e
00000200: c002 7e3e 0ffa 5a3e 9226 9a3d 4801 9a3e
00000210: 71c8 373c cac3 093e c187 cf3d 9a0d c9bd
00000220: 609e 8f3d 3a05 363c 02bc b23e 694a aa3e
00000230: 7938 853e 8aa1 ac3d 3970 03bf bd21 2a39
00000240: ed8b a63e 40ed fd3d e0a8 c4bd b6da e73d
00000250: 73f2 163e 14af 883e fe95 6c3e c435 4b3e
00000260: 21d9 4a3d 7400 08be 65fa cd3e 9ae8 f43d
00000270: b654 ce3e 39fc ba3e 354f 3d3e a510 6b3e
00000280: f48b 1d3e 0e6a 893d 0b7b 87bd f8d7 7e3e
00000290: 5cd6 743e c8c3 e8bd 481b e6bd f790 643e
000002a0: fd6b 743e d738 bf3e c2ce b53d fc6f a8bb
000002b0: c935 1dbd f9eb b63e ef95 ed3e 753a 693f
000002c0: 104b a7bd 1f6a 9d3e bd9d 463e efbd 2ebd
000002d0: e490 8d3e dc10 df3d 16da a1bd 16ee a33c
000002e0: f09c db3e c2d4 d0bc b212 3c3e 56ab d0bd
000002f0: ac4e 223e fe13 a13e db5e 0ab9 bade 363e
00000300: 48a4 443e f4d2 b23e 423a 51bc 0d1c 353b
00000310: 38eb 6a3c f938 663e ae12 3abe eea9 123e
00000320: fdd3 1e3e bea6 1ebe 1154 fd3d 68ec 903c
00000330: 7374 9d3e 4b75 a53e 0b26 773d 2682 2d3e
00000340: a4be 443f 9b6b 96bd f22d 9c3e 450d 2c3e
00000350: bbca b43d 119e 0dbe 2497 393e b23d 1ebe
00000360: 610f b6bd 616d bb3e b060 d43d 23c6 d1bd
00000370: 56f8 403e cb2e 393e e1e0 253e 7aea bf3e
00000380: b11b 053e 8f98 8abc 609e 14be 126f b63e
00000390: 7dd1 9d3e 04ca 803e dbb3 263e 553c 673e
000003a0: 87c3 8f3e 42d2 e13e b1d2 0b3f ff5e ac3e
000003b0: 400d 013f 6b72 163d b889 88be 8c1d 863e
000003c0: 556b ef3e dd7d 283f c662 8fbe 7c1c 183e
000003d0: c317 463e 7338 93bd cde2 4f3d e055 813e
000003e0: 8f5a 7b3d a1fe c03d 74fe 603c 8f4e fc3d
000003f0: 220c 44bd 7aa1 52be 8c00 643d 8bf7 3b3e

fc1.bias f4 [16]
1.1280279 0.9414142 0.98372424 1.1272348 0.7755046 1.1904905 0.94430935 0.6101611
0.9220097 0.57590044 0.8376628 0.95508844 0.85525477 0.7565236 1.129416 1.0081432
00000000: 3863 903f 8500 713f 5ad5 7b3f 3b49 903f
00000010: 7887 463f fe61 983f 42be 713f 8533 1c3f
00000020: d408 6c3f 366e 133f 1271 563f ad80 743f
00000030: faf1 5a3f 88ab 413f b490 903f d60a 813f

fc2.weight f4 [16, 16]
-0.28151125 0.76600415 -0.11972593 -0.23781572 -0.17078164 0.0005525468 -0.029618364 0.7764393
-0.49704072 0.32710862 0.93905896 1.2078388 0.6312484 0.4262632 0.3875329 0.5956063
-0.10608883 1.03332 0.13360076 -0.3287971 0.61122215 0.32686958 0.34042558 0.19934878
0.9473655 0.63558024 1.3875141 1.07484 1.3991767 0.4962387 0.9026376 1.154508
0.19121721 -0.06195708 0.35076496 0.7075164 0.28132284 0.60928136 0.31960124 1.1595188
0.11887649 0.7499941 0.069947526 -0.39587453 1.0240306 -0.557353 1.2899369 1.1212912
0.9546011 0.98296744 -0.48653123 0.66929483 0.3974329 1.1675543 -0.69023293 0.93147486
0.46070024 -0.05353482 -0.3666999 0.25824702 -0.547083 0.5617798 0.21996059 0.39157328
1.0342226 0.7307469 0.6791026 0.49683747 -0.4235481 0.7819516 0.26016226 -0.60305464
1.0890429 -0.8243241 -0.26423553 1.1278821 0.88007855 -0.25648722 -0.5074656 0.51274645
0.7552221 -0.009104677 0.99145925 1.1571459 -0.0792715 1.1879284 0.95536774 -0.39753124
0.053367354 0.80586237 1.1795429 0.9047724 -0.16411857 0.062957495 0.71116656 0.092652895
1.3585938 0.25217304 0.061583627 1.0736858 0.6148964 1.4520638 0.4905456 0.48492897
-0.22963136 1.4847991 1.0160694 0.9193886 0.2747392 0.14755721 1.4013386 0.84137744
1.1421658 1.0984389 0.31059664 1.1756434 0.51366895 0.9462523 -0.33880386 0.9674592
0.38417366 -0.0370256 0.26220632 1.2940911 -0.31959918 0.4761627 -0.3192962 0.3722921
0.95344853 -0.4013256 0.47315398 1.0283729 -0.2377119 0.90779877 0.7969788 0.5661533
0.27856565 -0.0069642914 0.69559985 1.2046565 0.14635725 0.012279919 1.1211668 0.83492553
0.7860834 0.6242465 0.8617456 0.9539246 1.3141102 0.38615894 1.3133303 0.71633774
1.1449172 0.9592056 0.83217114 -0.8514762 0.9090504 1.3256395 1.3733392 0.5302766
-0.24798791 1.2032465 0.069766596 -0.5397064 -0.12112723 0.63814944 0.23167704 -0.2815678
1.2304082 0.6944715 0.7258782 0.6233319 0.9828938 0.9029547 0.6994892 0.94009256
1.0390775 0.7294728 0.22886436 0.6120019 0.8317156 1.0481187 -0.082815625 0.6450626
1.0742873 -0.30856946 -0.61904395 -0.823796 0.016472159 1.3042477 1.3721083 0.59611684
0.8099535 -0.6906236 0.41481298 0.5705252 -0.56034184 0.9821103 0.35898098 0.08818533
0.42319342 -0.44227695 0.026710244 1.0133623 0.73722976 0.14868355 1.3364052 1.211545
0.34721842 1.1585535 -0.6801033 0.19378856 0.2380734 0.4624793 -0.73122317 0.8737745
0.02989203 0.941895 -0.28654882 0.58299786 0.3367445 -0.56313646 0.5963955 0.8974699
1.3654656 0.34041402 1.3610029 0.8444285 1.0520263 -0.20138864 1.3115419 -0.41320235
1.0603603 0.38717538 0.6448697 0.34871453 1.1764185 0.025686858 0.047780477 -0.0146000795
0.7951231 -0.29961267 -0.17958222 0.6238519 -0.13041921 0.5737653 0.058429986 1.003342
-0.5665753 -0.15864928 -0.7966036 -0.15676387 0.18678427 0.28612575 1.2699841 0.9158516
00000000: 3e22 90be d918 443f de32 f5bd f785 73be
00000010: 62e1 2ebe cad8 103a 36a2 f2bc bac4 463f
00000020: 1f7c febe c87a a73e 2b66 703f 769a 9a3f
00000030: 7f99 213f 2c3f da3e b66a c63e a879 183f
00000040: 1a45 d9bd d443 843f a3ce 083e 1858 a8be
00000050: 0e79 1c3f 735b a73e 434c ae3e 1622 4c3e
00000060: 8c86 723f 63b5 223f 109a b13f 5b94 893f
00000070: 3918 b33f 0013 fe3e 4213 673f ebc6 933f
00000080: 72ce 433e b5c6 7dbd 7797 b33e cb1f 353f
00000090: 8c09 903e ddf9 1b3f c6a2 a33e 1d6b 943f
000000a0: 8475 f33d 9dff 3f3f a640 8f3d 11b0 cabe
000000b0: 6f13 833f b0ae 0ebf a71c a53f 7886 8f3f
000000c0: bd60 743f c1a3 7b3f 9f1a f9be e856 2b3f
000000d0: 537c cb3e 6b72 953f 1bb3 30bf 2375 6e3f
000000e0: e7e0 eb3e 5447 5bbd 17c0 bbbe f438 843e
000000f0: a20d 0cbf cdd0 0f3f 593d 613e 4b7c c83e
00000100: 6861 843f 3b12 3b3f abd9 2d3f 7b61 fe3e
00000110: 4cdb d8be fb2d 483f fd33 853e ca61 1abf
00000120: c265 8b3f e706 53bf e149 87be 715e 903f
00000130: d44c 613f 4b52 83be 44e9 01bf 5a43 033f
00000140: 3c56 413f c82b 15bc 46d0 7d3f 5b1d 943f
00000150: 1959 a2bd 0a0e 983f fb92 743f 3789 cbbe
00000160: ba97 5a3d ff4c 4e3f 43fb 963f 2a9f 673f
00000170: b30e 28be dcef 803d 030f 363f cdc0 bd3d
00000180: 67e6 ad3f d31c 813e 1d3f 7c3d 896e 893f
00000190: da69 1d3f 3add b93f cb28 fb3e 9c48 f83e
000001a0: 7c24 6bbe e60d be3f 900e 823f 0d5d 6b3f
000001b0: 9eaa 8c3e 3d19 173e 105f b33f 8364 573f
000001c0: 7d32 923f a599 8c3f 8606 9f3e 7c7b 963f
000001d0: cf7f 033f 973d 723f b377 adbe 68ab 773f
000001e0: 69b2 c43e 28a8 17bd e83f 863e c7a4 a53f
000001f0: 81a2 a3be 99cb f33e cb7a a3be 129d be3e
00000200: 3415 743f 8d7a cdbe 3d41 f23e b9a1 833f
00000210: c06a 73be 8065 683f cd06 4c3f 6cef 103f
00000220: 28a0 8e3e b634 e4bb d512 323f 2f32 9a3f
00000230: adde 153e b731 493c 6582 8f3f aebd 553f
00000240: c33c 493f 9ece 1f3f 5c9b 5c3f 6734 743f
00000250: c334 a83f a0b6 c53e 351b a83f e961 373f
00000260: a68c 923f 808e 753f 2b09 553f 58fa 59bf
00000270: 87b7 683f 8eae a93f 94c9 af3f 35c0 073f
00000280: 8bf0 7dbe fb03 9a3f cae1 8e3d 332a 0abf
00000290: 8e11 f8bd c35d 233f bf3c 6d3e a829 90be
000002a0: 047e 9d3f e2c8 313f 27d3 393f ae92 1f3f
000002b0: ee9e 7b3f 0a28 673f b911 333f e8a9 703f
000002c0: 7e00 853f bbbe 3a3f 6b5b 6a3e 28ac 1c3f
000002d0: 50eb 543f c128 863f 3d9b a9bd d322 253f
000002e0: 3f82 893f d1fc 9dbe aa79 1ebf 4be4 52bf
000002f0: 9ff0 863c 97f1 a63f 3fa1 af3f 1d9b 183f
00000300: 1d59 4f3f b5cc 30bf 5e62 d43e f10d 123f
00000310: 9072 0fbf 956b 7b3f 5bcc b73e 839a b43d
00000320: cfac d83e 2072 e2be 71cf da3c dbb5 813f
00000330: 17bb 3c3f 8040 183e 530f ab3f e813 9b3f
00000340: 9dc6 b13e 7b4b 943f 401b 2ebf 8270 463e
00000350: 83c9 733e 16ca ec3e 7131 3bbf b0af 5f3f
00000360: 21e0 f43c 0820 713f 87b6 92be 593f 153f
00000370: c669 ac3e b629 10bf 60ad 183f 96c0 653f
00000380: 94c7 ae3f bf4a ae3e 5835 ae3f 772c 583f
00000390: cca8 863f d338 4ebe 9be0 a73f 428f d3be
000003a0: e3b9 873f da3b c63e 2e16 253f b68a b23e
000003b0: e294 963f 3f6d d23c 76b5 433d 2c35 6fbc
000003c0: 308d 4b3f d566 99be 67e4 37be c2b4 1f3f
000003d0: 9d8c 05be 48e2 123f 4854 6f3d 836d 803f
000003e0: 140b 11bf f574 22be 37ee 4bbf b586 20be
000003f0: 6044 3f3e 137f 923e d78e a23f 4075 6a3f

fc2.bias f4 [16]
0.31204492 0.2990876 -0.25556552 0.41698596 0.47389022 0.57248634 0.49060023 0.57775193
0.38940904 0.18083346 0.017314842 0.46913856 0.24863474 0.29964405 0.39076576 0.11783335
00000000: 5ac4 9f3e 0322 993e 7cd9 82be 2f7f d53e
00000010: bda1 f23e 778e 123f f42f fb3e 8de7 133f
00000020: 9f60 c73e 682c 393e dbd7 8d3c ee32 f03e
00000030: 1b9a 7e3e f26a 993e 7312 c83e 9d52 f13d

fc3.weight f4 [15, 16]
0.38236928 0.10941221 -1.2978662 0.3327345 -0.22575535 0.19936816 0.3692703 0.29657066
-0.9945588 -1.8732984 0.0899319 -1.017626 -1.0869268 0.28355825 -1.5675011 -0.9757541
-0.12711588 0.19955964 -0.46490678 -1.1091224 0.15749487 -0.68822104 -2.3497152 -1.7301981
-1.3061576 0.47816402 0.14663956 0.45450103 -0.9299424 -0.7116005 0.40361908 -0.4461893
0.35438251 0.46632993 -0.05208364 -0.76178527 -0.21188097 -0.5216488 -1.0172544 -1.215773
-1.2050424 -0.2952371 0.23037991 -1.4543525 -1.320405 0.32006997 0.030039458 -0.9185201
-1.2693496 -1.3555534 -1.0594133 0.58916444 0.36681938 -0.22832029 -2.3363957 0.48379296
-1.0955838 0.090287544 -0.73764706 0.641184 -1.0667446 -0.9495117 0.45912272 0.071053624
0.15627182 -0.4860901 0.5612469 -0.9672844 -0.95689356 -0.9046071 -0.31530863 -1.8343407
-1.3700265 0.0035969727 -0.851888 -0.6477495 -0.7158791 0.1333357 0.15510656 0.53293306
0.21550642 -0.19254568 -1.4277284 -0.81944424 -1.2029662 0.25125048 0.14630531 -1.6617091
-0.28320676 -0.79591024 0.18548572 -0.7617654 0.30213147 -0.529152 -1.4060727 0.16999984
-0.297756 -1.9339063 -0.24550049 0.32103345 -0.23159574 -0.5617616 0.07581478 0.21618609
0.49612072 -1.7402066 -1.2952652 -0.25527272 0.33582985 0.2585777 -1.4488239 0.493633
-1.0507107 -1.3005224 0.2589369 -1.1895329 -1.0092032 0.59891146 -0.18127133 -1.0727847
-1.2620887 0.44853523 -1.4485817 -0.37478426 -1.473625 -0.9303422 0.5052528 -0.49166244
-0.08370333 0.45064154 -1.5684115 0.2186984 0.106158674 -1.7709963 -1.8652446 0.26695275
-0.9379991 -0.17246053 0.25825632 0.42854828 -1.6010879 0.3085548 -0.3872072 -0.9322025
-1.0563737 -1.1458948 0.2903529 -0.621489 0.20723906 -0.14936493 -2.1446853 -1.3996141
0.0767068 -0.08432232 -0.46537292 -0.27862334 0.16060361 -0.5760169 -0.21368513 0.20590612
0.11109107 -1.9552448 -1.2990216 -0.56238085 0.5550929 0.74062365 -0.8028067 0.44343102
0.2742726 -1.0538011 -1.5079207 -1.268476 -0.11950179 -0.6771379 0.368346 -0.15510994
0.122093864 0.13424085 0.039304182 -0.62075686 0.2820543 -0.14958046 -2.1592467 -1.2723097
-0.4682448 -0.6305912 0.15547174 -1.3981322 0.44949484 -1.0870062 0.056110147 -0.97868377
-0.083808854 -1.2986978 -0.31663573 0.29832506 -1.313558 -0.4235753 -0.13371058 0.02707689
-1.291881 -0.18936929 -0.40615094 0.29646003 -1.8295616 0.054362163 -0.786974 0.18225257
-0.26749197 -0.52294004 -0.44355595 -0.20284371 0.39607865 -0.7881392 -1.215695 -0.53898597
-0.6653932 -1.1395723 0.055547602 -0.35646445 0.046403218 0.11239701 -0.23038475 -0.09077416
0.23205464 0.023474108 0.13698088 0.19758964 -0.6487146 -1.7598997 -1.2557393 -0.2570865
-1.2216284 -0.48858312 -0.033566903 0.14489353 -0.15883732 0.0880435 -1.5150126 0.35319227
00000000: e8c5 c33e 8213 e03d 7b20 a6bf 2d5c aa3e
00000010: 692c 67be 2b27 4c3e ff10 bd3e 1cd8 973e
00000020: 689b 7ebf 3ec8 efbf 372e b83d 9241 82bf
00000030: 6b20 8bbf 8c2e 913e e0a3 c8bf 05cb 79bf
00000040: aa2a 02be 5d59 4c3e 4308 eebe b9f7 8dbf
00000050: 5646 213e 412f 30bf bc61 16c0 2277 ddbf
00000060: 2c30 a7bf ead1 f43e ae28 163e 5cb4 e83e
00000070: b510 6ebf 732b 36bf 29a7 ce3e ed72 e4be
00000080: a071 b53e ccc2 ee3e a855 55bd 5c04 43bf
00000090: 53f7 58be c78a 05bf 6435 82bf 739e 9bbf
000000a0: d43e 9abf 5129 97be b6e8 6b3e 3928 babf
000000b0: 0803 a9bf 36e0 a33e 4f15 f63c 2224 6bbf
000000c0: 0c7a a2bf c682 adbf db9a 87bf 7bd3 163f
000000d0: c0cf bb3e cbcc 69be 8287 15c0 b6b3 f73e
000000e0: 173c 8cbf ade8 b83d 70d6 3cbf a224 243f
000000f0: 168b 88bf 3313 73bf 2212 eb3e 9084 913d
00000100: b805 203e cde0 f8be e0ad 0f3f f39f 77bf
00000110: faf6 74bf 5594 67bf 2270 a1be adcb eabf
00000120: 075d afbf 30bb 6b3b 5515 5abf e9d2 25bf
00000130: da43 37bf 2789 083e 41d4 1e3e 4d6e 083f
00000140: b7ad 5c3e b22a 45be cebf b6bf 19c7 51bf
00000150: ccfa 99bf e7a3 803e 0fd1 153e e2b2 d4bf
00000160: 7a00 91be c6c0 4bbf f8ef 3d3e 0f03 43bf
00000170: fab0 9a3e 8176 07bf 31fa b3bf 7014 2e3e
00000180: 7973 98be 3e8a f7bf 7b64 7bbe 7f5e a43e
00000190: 6f27 6dbe 9ccf 0fbf c844 9b3d e35f 5d3e
000001a0: 8903 fe3e 17bf debf 40cb a5bf 1bb3 82be
000001b0: e4f1 ab3e 4c64 843e 1073 b9bf 77bd fc3e
000001c0: b07d 86bf 8577 a6bf 6193 843e 9d42 98bf
000001d0: 922d 81bf 4352 193f 319f 39be 0251 89bf
000001e0: 1f8c a1bf 69a6 e53e 206b b9bf b9e3 bfbe
000001f0: be9f bcbf e82a 6ebf 3f58 013f 2ebb fbbe
00000200: a76c abbd 7dba e63e b5c1 c8bf 79f2 5f3e
00000210: b869 d93d 02b0 e2bf 56c0 eebf 08ae 883e
00000220: b620 70bf 7e99 30be 2c3a 843e ae6a db3e
00000230: 73f0 ccbf e5fa 9d3e 0640 c6be d3a4 6ebf
00000240: 4137 87bf aeac 92bf 23a9 943e e719 1fbf
00000250: 7a36 543e 1ff3 18be 8642 09c0 8e26 b3bf
00000260: 7418 9d3d 2eb1 acbd 5c45 eebe b8a7 8ebe
00000270: 4675 243e d875 13bf 46d0 5abe 0ed9 523e
00000280: b783 e33d 7645 fabf 5746 a6bf 31f8 0fbf
00000290: 911a 0e3f 8399 3d3f bd84 4dbf 6409 e33e
000002a0: 756d 8c3e f4e2 86bf 8c03 c1bf 6c5d a2bf
000002b0: 5bbd f4bd e958 2dbf d997 bc3e 24d5 1ebe
000002c0: 590c fa3d 6f76 093e 6cfd 203d ece9 1ebf
000002d0: 6c69 903e 9f2b 19be 1931 0ac0 0bdb a2bf
000002e0: c8bd efbe 6d6e 21bf fc33 1f3e fff5 b2bf
000002f0: 3024 e63e 0523 8bbf c1d3 653d 058b 7abf
00000300: faa3 abbd bb3b a6bf 141e a2be 10be 983e
00000310: ab22 a8bf ddde d8be 6deb 08be 5bd0 dd3c
00000320: 5b5c a5bf 06ea 41be 04f3 cfbe 9cc9 973e
00000330: 132f eabf dcaa 5e3d 2177 49bf 6ba0 3a3e
00000340: b5f4 88be 66df 05bf c419 e3be 43b6 4fbe
00000350: d2ca ca3e 7ec3 49bf e59b 9bbf fcfa 09bf
00000360: 3557 2abf 81dd 91bf e285 633d 8282 b6be
00000370: 4d11 3e3d 6730 e63d fbe9 6bbe cee7 b9bd
00000380: bb9f 6d3e c64c c03c b744 0c3e f054 4a3e
00000390: 2912 26bf 6544 e1bf 11bc a0bf d7a0 83be
000003a0: 525e 9cbf 9127 fabe 737d 09bd f85e 143e
000003b0: 40a6 22be 2750 b43d efeb c1bf 9ed5 b43e

fc3.bias f4 [15]
0.26413542 0.1913393 0.13438347 -0.14977114 -0.27330366 0.007822008 0.20807625 0.23744772
0.06581824 -0.35812348 0.122442126 -0.07845482 -0.07126459 -0.33890817 -0.22889201
00000000: c23c 873e 73ee 433e d29b 093e 9b5d 19be
00000010: 75ee 8bbe e127 003c f111 553e 7f25 733e
00000020: b7cb 863d f65b b7be f0c2 fa3d ecac a0bd
00000030: 2bf3 91bd 5f85 adbe ab62 6abe
